best_model.pth (torch, 77348 bytes, 7 tensors)

model1.fc1.weight f4 [64, 28]
-0.49416894 0.1650255 0.3105462 0.1571773 0.0031156507 0.1285546 0.0155113 -0.09699292
0.058838587 -0.14211147 0.17995001 0.2561423 0.4199907 -0.113895535 -0.30469567 0.34296602
-0.30550992 0.7023412 -0.060669728 0.6561364 -0.3575121 -0.11133258 -0.018653253 -0.7614842
-0.42650872 0.41049176 0.20843366 0.4768812 -0.2663796 -0.081552446 -0.5187718 0.0646021
-0.16332552 0.13092491 -0.38544217 0.18103208 -0.03271591 0.04536816 -0.14999862 -0.16388889
-0.3597499 -0.5223912 0.20360109 0.12319208 0.1404281 0.15138783 -0.10034905 -0.43355313
-0.11838706 0.33591047 -0.49003792 0.2888085 -0.15016943 -0.15344349 -0.4472497 -0.18813992
0.20618506 0.043425795 0.012777438 0.013788536 0.1119122 0.15235102 -0.18950735 0.16663554
-0.19311072 0.101445004 -0.049950693 -0.07982032 0.41609782 0.27475196 0.014246389 -0.058049545
-0.21162339 -0.21535511 0.2775616 0.25080925 -0.06378372 -0.46649116 0.37169835 -0.01960968
0.29966846 0.13625337 0.31661835 0.13268685 0.2753899 0.018814243 0.18820827 -0.031279217
0.16233364 0.19136748 -0.0938001 -0.11849009 0.15289798 0.026193248 0.0046298276 0.07320529
0.20319077 0.30015334 -0.020840066 -0.0066992017 -0.3836951 -0.022409605 0.08207956 0.33798853
0.07364994 -0.25153396 0.4238174 -0.24769261 -0.492153 -0.11701367 0.21774784 0.06935039
0.048243906 0.15941851 0.3613277 0.12213408 0.030733293 -0.02068563 0.046072878 0.026002182
-0.08082447 0.09068083 -0.13162151 -0.09950949 0.12407095 0.48036438 -0.26049703 0.03650634
-0.11080799 -0.1326483 0.2661956 0.22205569 0.29686683 -0.39178744 0.3485491 -0.18529402
0.034167282 -0.064726055 0.44596112 0.10242603 -0.308463 0.0060954355 0.3295931 -0.070721745
-0.14998683 0.14636035 -0.06600682 0.1164927 0.10235293 -0.09027073 0.07996944 -0.17209549
-0.31008035 0.19516037 0.6019644 0.33627328 0.26502195 -0.65329826 -0.2906685 -0.28732994
0.21271999 0.24665494 0.06193148 0.39599437 0.18920802 -0.27626154 -0.2749816 -0.5133567
0.00049019884 0.08636047 -0.35947865 0.1147654 -0.0599178 0.13045427 0.15762246 0.11449233
-0.13288173 0.00894561 0.13336818 0.026948053 -0.17872907 -0.21941452 -0.18787675 0.21999605
0.08188863 0.00824379 -0.06730903 -0.3043771 0.2105439 0.3620003 -0.005044851 0.14390129
0.67487144 -0.16401547 -0.03690196 -0.043723334 0.28214628 0.06087618 0.37366435 0.26226726
-0.06743979 -0.65153265 -0.08981487 -0.17916428 0.012510586 -0.00014137838 -0.27385324 0.03793712
0.38766485 0.06079217 0.3322746 -0.094217554 -0.36559537 0.041992586 -0.026915962 0.36455256
0.102785595 -0.29575095 0.42510176 -0.44171217 -0.17735197 -0.019890454 0.15882055 0.022239788
-0.45717144 0.10216821 -0.13835934 -0.07349205 -0.1514322 0.015629234 -0.11460814 0.10409986
0.051446363 0.0023730742 0.08669181 -0.11256666 -0.33660936 -0.3551891 0.100321636 0.005826181
0.4673083 0.006715614 -0.27696437 -0.5353213 -0.21778402 0.37887436 -0.28913707 0.17461829
0.1024455 0.010260914 -0.40852746 -0.14388481 -0.056403164 -0.23058122 0.25018096 -0.09730356
00000000: b603 fdbe 72fc 283e e9ff 9e3e 16f3 203e
00000010: f22f 4c3b d1a3 033e 1c23 7e3c 39a4 c6bd
00000020: bb00 713d ab85 11be d144 383e 1525 833e
00000030: 0509 d73e 1042 e9bd 1201 9cbe 3e99 af3e
00000040: cc6b 9cbe a2cc 333f d280 78bd 8ef8 273f
00000050: d30b b7be 5602 e4bd b5ce 98bc a1f0 42bf
00000060: 5a5f dabe fa2b d23e a26f 553e c629 f43e
00000070: e862 88be f804 a7bd 3bce 04bf 1b4e 843d
00000080: ce3e 27be 2e11 063e ad58 c5be 7960 393e
00000090: 1e01 06bd f7d3 393d 3d99 19be 7dd2 27be
000000a0: 2431 b8be 6ebb 05bf ce7c 503e 214c fc3d
000000b0: 62cc 0f3e 6905 1b3e cd83 cdbd adfa ddbe
000000c0: ea74 f2bd 75fc ab3e 40e6 fabe b5de 933e
000000d0: 04c6 19be 4a20 1dbe eafd e4be c0a7 40be
000000e0: 2d22 533e 3fdf 313d 7658 513c 50e9 613c
000000f0: 3932 e53d e801 1c3e 370e 42be 82a2 2a3e
00000100: d1be 45be 66c2 cf3d 1999 4cbd d678 a3bd
00000110: c60a d53e 4aac 8c3e b069 693c 5cc5 6dbd
00000120: cdb3 58be 0d86 5cbe 8e1c 8e3e 126a 803e
00000130: 0aa1 82bd eed7 eebe 3f4f be3e 7ba4 a0bc
00000140: 256e 993e 0186 0b3e cd1b a23e 10df 073e
00000150: e8ff 8c3e 5420 9a3c abb9 403e a31e 00bd
00000160: ca3a 263e d6f5 433e 441a c0bd efaa f2bd
00000170: 4a91 1c3e 3993 d63c cfb5 973b a8ec 953d
00000180: 3e11 503e b3ad 993e c9b8 aabc fa84 dbbb
00000190: af73 c4be 5994 b7bc 5419 a83d d50c ad3e
000001a0: c8d5 963d 0fc9 80be 98fe d83e 22a3 7dbe
000001b0: 7afb fbbe dda4 efbd 4af9 5e3e 9407 8e3d
000001c0: 679b 453d 9b3e 233e f2ff b83e 6f21 fa3d
000001d0: 63c4 fb3c e974 a9bc eab6 3c3d 8702 d53c
000001e0: 4d87 a5bd dfb6 b93d cac7 06be a2cb cbbd
000001f0: e918 fe3d 52f2 f53e de5f 85be ac87 153d
00000200: 4def e2bd f5d4 07be ca4a 883e 9162 633e
00000210: eefe 973e 5d98 c8be 0775 b23e b7bd 3dbe
00000220: fef2 0b3d 188f 84bd 0455 e43e bdc4 d13d
00000230: ddee 9dbe 38bc c73b 6dc0 a83e 90d6 90bd
00000240: 2696 19be 7ddf 153e 952e 87bd ba93 ee3d
00000250: 6a9e d13d dcdf b8bd 05c7 a33d cd39 30be
00000260: dac2 9ebe 1fd8 473e 571a 1a3f 032c ac3e
00000270: f5b0 873e 8e3e 27bf 80d2 94be e91c 93be
00000280: 45d3 593e 1d93 7c3e ddab 7d3d c6bf ca3e
00000290: bfbf 413e 2772 8dbe 63ca 8cbe 586b 03bf
000002a0: b080 003a c2dd b03d 960d b8be 1f0a eb3d
000002b0: 5e6c 75bd ce95 053e c867 213e f47a ea3d
000002c0: 2612 08be 9c90 123c ab91 083e 2ac2 dc3c
000002d0: c104 37be 33ae 60be c362 40be a546 613e
000002e0: 3ab5 a73d f610 073c 51d9 89bd 51d7 9bbe
000002f0: d298 573e 1a58 b93e 474f a5bb dc5a 133e
00000300: 60c4 2c3f acf3 27be 8226 17bd 3d17 33bd
00000310: 7a75 903e 4d59 793d ef50 bf3e e547 863e
00000320: df1d 8abd d8ca 26bf dcf0 b7bd d776 37be
00000330: 33f9 4c3c f83e 14b9 7e36 8cbe f463 1b3d
00000340: 027c c63e 3601 793d e51f aa3e 22f5 c0bd
00000350: 512f bbbe 6b00 2c3d dd7e dcbc a2a6 ba3e
00000360: 4181 d23d ab6c 97be f0a6 d93e 1928 e2be
00000370: c19b 35be 4ef1 a2bc dba1 223e 3730 b63c
00000380: 6012 eabe 913d d13d 12ae 0dbe 0083 96bd
00000390: 0b11 1bbe e108 803c acb7 eabd 4f32 d53d
000003a0: 6cb9 523d 9485 1b3b 7a8b b13d 5989 e6bd
000003b0: 1058 acbe 59db b5be 6e75 cd3d 8ce9 be3b
000003c0: 0943 ef3e a70e dc3b 46ce 8dbe d10a 09bf
000003d0: c602 5fbe d2fb c13e c609 94be 23cf 323e
000003e0: f2ce d13d 651d 283c 832a d1be 8a56 13be
000003f0: 0107 67bd 7c1d 6cbe b817 803e 1747 c7bd

model1.fc1.bias f4 [64]
-0.056185834 0.08801331 0.13723822 0.11357182 -0.0037072944 0.17790987 0.1363562 0.12677912
0.0041891085 -0.30967763 0.11830474 -0.08474579 0.12896012 -0.12988174 -0.16856547 -0.118225925
0.04142464 -0.15898874 -0.19140428 0.5969404 -0.32454613 0.08749999 -0.08492576 -0.07101087
-0.063033365 0.11070973 -0.22759737 -0.08784888 -0.03135054 -0.023495147 0.17851204 0.270662
0.0026261916 -0.015298919 0.014297521 -0.13530837 0.11734276 -0.25354624 0.11133665 0.15434656
0.094811365 -0.20485516 -0.092775986 0.044036817 -0.19166821 0.038357574 -0.035487182 0.02898115
0.15845086 0.0033173382 0.14912596 0.23419617 -0.08375681 -0.27664468 -0.16543318 0.1122878
0.1804064 -0.11800873 0.13265175 0.040491104 0.31092107 0.17211089 0.19786912 -0.14923924
00000000: 1e23 66bd 5340 b43d 2d88 0c3e 5898 e83d
00000010: 14f6 72bb 012e 363e f6a0 0b3e 63d2 013e
00000020: ca44 893b 118e 9ebe c149 f23d 338f adbd
00000030: 1f0e 043e b8ff 04be 6d9c 2cbe 6f20 f2bd
00000040: e2ac 293d f2cd 22be 7cff 43be 16d1 183f
00000050: e92a a6be 3233 b33d 8fed adbd 266e 91bd
00000060: a317 81bd c8bb e23d 490f 69be 1dea b3bd
00000070: 6d69 00bd e578 c0bc dccb 363e 3694 8a3e
00000080: 2f1c 2c3b 51a8 7abc 2640 6a3c 478e 0abe
00000090: 6751 f03d d0d0 81be 7804 e43d 060d 1e3e
000000a0: 762c c23d 8dc5 51be 5601 bebd f35f 343d
000000b0: ac44 44be d51c 1d3d 025b 11bd e069 ed3c
000000c0: f140 223e b367 593b 7ab4 183e 1fd1 6f3e
000000d0: b188 abbd 5fa4 8dbe 5167 29be 25f7 e53d
000000e0: 75bc 383e 90ae f1bd dcd5 073e 00da 253d
000000f0: 0c31 9f3e d63d 303e 349e 4a3e 2cd2 18be

model1.fc2.weight f4 [128, 64]
-0.099767834 0.056135684 -0.078804135 0.0031199157 -0.046430856 -0.070351005 0.042919055 -0.03522761
-0.014884084 0.027969882 -0.02668655 -0.0868285 -0.06964368 0.022929505 0.11383875 -0.06904304
-0.00918518 -0.0967935 0.026360989 -0.031879455 0.08194853 0.008268505 -0.04099472 -0.07109895
0.07288651 -0.12180784 -0.055772096 0.106727585 0.0865459 0.02520883 -0.012280747 -0.08453272
-0.04313697 0.121445015 -0.020628825 -0.081449136 -0.03146419 0.009250984 0.09005256 0.0569081
-0.10286395 -0.062447906 -0.06274642 -0.022188291 0.08788644 0.121446595 -0.050181642 -0.0057516396
-0.03245917 -0.028095633 -0.022167385 -0.010344267 -0.07467203 -0.012619525 -0.059327632 -0.085563436
-0.12141064 -0.032905906 -0.04325849 -0.035167813 -0.09037042 -0.12409198 0.007381439 -0.0481517
0.04891003 -0.024285369 0.0028095152 -0.12689942 -0.020026904 -0.09506051 0.08285527 -0.089437805
0.067143895 0.0060862005 -0.05046322 0.003835351 0.12474556 -0.033080548 0.05494382 -0.078995325
0.05052991 0.10564442 -0.077631705 -0.059781056 0.021360487 0.040337123 0.037624273 -0.13813837
-0.10707302 -0.023751047 -0.12397582 -0.13925336 0.081740156 -0.10206172 0.020625878 0.2997848
0.055766825 -0.11401335 -0.08928372 -0.021580137 -0.23280269 -0.10952057 -0.114937246 -0.08022826
0.07168697 0.0724793 0.17217988 0.077147186 -0.06346532 0.047387645 0.11072377 -0.019850075
-0.03058694 -0.17383343 -0.066485696 -0.03933409 0.124462806 0.030107498 0.020726021 -0.042093627
-0.08610003 -0.11906336 -0.25633737 -0.009533381 -0.13975498 0.06158445 -0.060188074 0.06721901
-0.025414078 0.0065980125 -0.12832451 0.21084455 -0.30913904 0.057374705 -0.13989922 -0.15919258
0.06560748 -0.084450886 -0.01585533 -0.018556507 -0.027354967 -0.113620825 0.07791739 -0.05344831
0.10565487 -0.11076008 0.089661896 -0.2545921 0.25438267 0.22571684 0.0088832 -0.023820883
-0.0038061715 -0.19450846 0.15283161 -0.031338856 -0.020732267 -0.09667236 0.13040683 0.12320872
-0.13968953 0.11489387 0.053349987 0.00021830779 -0.13971372 -0.07157306 -0.34228754 0.10569101
-0.115181744 0.05354006 0.34219223 -0.052311976 0.12624405 0.0125711225 -0.07475268 0.10985623
0.07200812 -0.038015936 -0.018619766 -0.14693 0.07457861 0.049733736 -0.043287147 0.019389985
-0.29073477 0.12992366 0.10437424 0.05192686 0.12279254 -0.28208202 0.030457592 -0.10786519
-0.08907345 0.06899559 0.114823386 0.106407866 0.0631601 -0.04293128 0.11038107 0.30080044
-0.09406213 0.12291318 -0.053883474 0.03600349 0.014572129 -0.07730112 -0.040117808 -0.00449185
-0.039334264 -0.11245652 -0.05522262 0.7818624 -0.015607441 -0.12387159 -0.061158597 0.24382882
-0.080153614 -0.009105505 0.007657583 0.101179905 -0.006551016 0.014970432 -0.0948857 -0.28909126
0.038054537 -0.111079454 -0.045322187 0.02428999 0.44708434 -0.065088175 0.10477457 0.07641763
-0.10107433 -0.07762077 -0.2142323 0.056732647 -0.1251844 0.020749534 0.018216927 0.028451603
-0.11813877 0.20732062 -0.42915213 0.058751147 -0.03399028 -0.18708341 -0.12573406 -0.03365006
-0.07027451 -0.08565974 0.4940893 0.0070095514 0.3672869 0.16082565 -0.010112602 -0.09311243
00000000: 1453 ccbd 88ee 653d 1064 a1bd 8077 4c3b
00000010: 482e 3ebd 3014 90bd e4cb 2f3d d44a 10bd
00000020: 60dc 73bc 1821 e53c c09d dabc 24d3 b1bd
00000030: 58a1 8ebd a8d6 bb3c 4a24 e93d 7066 8dbd
00000040: 707d 16bc ac3b c6bd 00f3 d73c 0894 02bd
00000050: a2d4 a73d a078 073c 14ea 27bd 549c 91bd
00000060: 8645 953d 6476 f9bd 4871 64bd fe93 da3d
00000070: fa3e b13d c082 ce3c 3035 49bc 7e1f adbd
00000080: 64b0 30bd 2ab8 f83d c8fd a8bc cece a6bd
00000090: 98e0 00bd 7091 173c 7a6d b83d 7818 693d
000000a0: 56aa d2bd 60c9 7fbd 3281 80bd 38c4 b5bc
000000b0: cefd b33d feb8 f83d 448b 4dbd 4078 bcbb
000000c0: e8f3 04bd d028 e6bc 6098 b5bc 007b 29bc
000000d0: a6ed 98bd 20c2 4ebc 8801 73bd e23b afbd
000000e0: 24a6 f8bd 58c8 06bd d02f 31bd 200c 10bd
000000f0: 2014 b9bd f023 febd 00e0 f13b b83a 45bd
00000100: e255 483d 1cf2 c6bc d81f 383b ecf1 01be
00000110: 760f a4bc 16af c2bd 06b0 a93d 2b2b b7bd
00000120: bd82 893d c06e c73b 85b2 4ebd 835a 7b3b
00000130: 9a7a ff3d 787f 07bd c50c 613d 4dc8 a1bd
00000140: 73f8 4e3d 1a5c d83d 5ffd 9ebd fbdc 74bd
00000150: 30fc ae3c 8a38 253d e91b 1a3d 2574 0dbe
00000160: 1949 dbbd 8e91 c2bc 09e7 fdbd 6f98 0ebe
00000170: 6267 a73d bc05 d1bd 9af7 a83c 657d 993e
00000180: c16b 643d d57f e9bd 62da b6bd d4c8 b0bc
00000190: d463 6ebe 524c e0bd 3864 ebbd b74e a4bd
000001a0: 9ed0 923d 0770 943d ec4f 303e 58ff 9d3d
000001b0: 1bfa 81bd 8c19 423d 25c3 e23d a09c a2bc
000001c0: 7691 fabc 6401 32be a729 88bd c81c 21bd
000001d0: 5be6 fe3d 00a4 f63c 9ec9 a93c 5e6a 2cbd
000001e0: 3655 b0bd 7ed7 f3bd a73e 83be e631 1cbc
000001f0: ee1b 0fbe fa3f 7c3d c587 76bd 1faa 893d
00000200: 2f31 d0bc 2434 d83b 8067 03be a2e7 573e
00000210: 7947 9ebe bd01 6b3d be41 0fbe 6103 23be
00000220: 375d 863d 96f4 acbd 09e3 81bc d103 98bc
00000230: 8617 e0bc 09b2 e8bd 2793 9f3d 9dec 5abd
00000240: 9561 d83d 2ed6 e2bd a8a0 b73d e559 82be
00000250: 723e 823e 5122 673e d78a 113c 0324 c3bc
00000260: f670 79bb 3a2d 47be e47f 1c3e 2c5d 00bd
00000270: b7d6 a9bc 29fc c5bd 5e89 053e da54 fc3d
00000280: c60a 0fbe 7a4d eb3d 8485 5a3d 8de9 6439
00000290: 1d11 0fbe e594 92bd 5040 afbe 8774 d83d
000002a0: 68e4 ebbd d24c 5b3d d233 af3e 1545 56bd
000002b0: 1f46 013e 1cf7 4d3c ef17 99bd 4efc e03d
000002c0: fe78 933d 99b6 1bbd 7b88 98bc d174 16be
000002d0: acbc 983d 9ab5 4b3d dd4d 31bd bfd7 9e3c
000002e0: 30db 94be b50a 053e 29c2 d53d 42b1 543d
000002f0: a87a fb3d 0e6d 90be 3382 f93c 6de8 dcbd
00000300: 246c b6bd 8f4d 8d3d 8628 eb3d 5eec d93d
00000310: 155a 813d b6d8 2fbd 780f e23d 8402 9a3e
00000320: a5a3 c0bd e8b9 fb3d ebb4 5cbd 6578 133d
00000330: f0bf 6e3c 0d50 9ebd 9252 24bd 5e30 93bb
00000340: f71c 21bd 9b4f e6bd 1d31 62bd 2228 483f
00000350: 5ab6 7fbc 63b0 fdbd 7081 7abd 43ae 793e
00000360: 9427 a4bd 422f 15bc 76ec fa3b 6937 cf3d
00000370: e8a9 d6bb 8b46 753c 6f53 c2bd c503 94be
00000380: 13df 1b3d a07d e3bd c2a3 39bd cdfb c63c
00000390: 3de8 e43e f34c 85bd 0d94 d63d d980 9c3d
000003a0: 0f00 cfbd a3f7 9ebd b65f 5bbe 7e60 683d
000003b0: 5730 00be edfa a93c aa3b 953c 5613 e93c
000003c0: bdf2 f1bd db4b 543e d4b9 dbbe 0ba5 703d
000003d0: 6439 0bbd cb92 3fbe 6ec0 00be a5d4 09bd
000003e0: 15ec 8fbd 606e afbd 46f9 fc3e 61b0 e53b
000003f0: 070d bc3e 7baf 243e 54af 25bc bbb1 bebd

model1.fc2.bias f4 [128]
-0.064772666 0.043794133 -0.09911238 0.13369982 -0.04677687 0.08478813 0.014372463 0.22147207
0.020622874 0.17841992 0.1106234 0.04579341 -0.1732612 0.048525274 0.025575746 0.0060034087
-0.04162632 0.082857266 -0.12221455 -0.11774391 -0.051930875 0.3780524 0.18258733 0.022960972
0.1012471 0.18923916 -0.17778504 -0.07026873 0.14377993 -0.037857544 -0.022300612 0.09228569
-0.05518402 0.14146441 0.05014947 -0.20465949 0.083493404 -0.09498032 -0.18982205 0.026720928
-0.018056931 0.0786926 0.13805959 -0.020183956 -0.11424965 0.036899418 0.1083305 0.03560839
-0.0162454 0.027745489 -0.0777405 0.22841412 0.22056556 -0.0054337075 0.33396733 -0.05588332
0.044156544 0.026346667 -0.013892603 0.035416223 0.15805033 -0.099327296 -0.1369922 -0.03316736
0.009828244 -0.048755202 -0.0839588 0.19497643 0.017417502 -0.051054973 0.12993082 -0.00614916
0.07142888 0.070010304 -0.1222505 -0.052871488 -0.06396277 0.15445864 -0.090891704 -0.05633454
0.06514764 0.013039763 0.07398234 0.10953342 0.11066721 0.11229831 0.3537003 -0.029783215
-0.0030856722 0.041588087 0.0030644212 0.08230369 -0.06569113 -0.15981822 -0.04102005 -0.08211712
-0.100618206 -0.08793645 0.122478954 0.01542073 -0.07170126 0.1946546 0.07604304 -0.1754924
-0.04438351 0.01933854 -0.13061632 -0.10299221 -0.12958191 -0.047594205 0.10762789 0.3369396
-0.1293713 -0.14840169 0.1986033 0.07240579 0.050813098 0.29084098 0.06923747 0.2113348
0.023285933 0.05058593 0.16874337 -0.13666327 -0.044272132 0.044093255 -0.05677981 0.028307253
00000000: 88a7 84bd 7a61 333d 6efb cabd 9be8 083e
00000010: 1a99 3fbd 66a5 ad3d 7b7a 6b3c 93c9 623e
00000020: 4df1 a83c b6b3 363e 858e e23d df91 3b3d
00000030: 626b 31be 70c2 463d 3a84 d13c 3eb8 c43b
00000040: 5c80 2abd 12b1 a93d 9f4b fabd b823 f1bd
00000050: 78b5 54bd 1690 c13e 2cf8 3a3e a618 bc3c
00000060: a45a cf3d e9c7 413e 480d 36be 0de9 8fbd
00000070: 0c3b 133e 8310 1bbd c6af b6bc 4800 bd3d
00000080: a408 62bd 0cdc 103e 8869 4d3d 4292 51be
00000090: 97fe aa3d 0b85 c2bd b660 42be d9e5 da3c
000000a0: 21ec 93bc 9629 a13d 7e5f 0d3e d358 a5bc
000000b0: b8fb e9bd d823 173d 62dc dd3d 1ada 113d
000000c0: 1315 85bc 824a e33c 6936 9fbd 64e5 693e
000000d0: f0db 613e 3e0d b2bb c4fd aa3e e8e5 64bd
000000e0: 7edd 343d f7d4 d73c cd9d 63bc 9a10 113d
000000f0: f2d7 213e 1c6c cbbd af47 0cbe 7fda 07bd
00000100: a506 213c 89b3 47bd 97f2 abbd e7a7 473e
00000110: 26af 8e3c 051f 51bd 960c 053e e57e c9bb
00000120: 4e49 923d 9061 8f3d 785e fabd c68f 58bd
00000130: eafe 82bd 682a 1e3e 6e25 babd 0cbf 66bd
00000140: 206c 853d bba4 553c 0e84 973d 0f53 e03d
00000150: 7da5 e23d a8fc e53d 3518 b53e eefb f3bc
00000160: fd38 4abb 4558 2a3d 75d4 483b d68e a83d
00000170: 1289 86bd 63a7 23be a404 28bd 052d a8bd
00000180: eb10 cebd 0718 b4bd 3fd6 fa3d 3ba7 7c3c
00000190: 1cd8 92bd 8953 473e 74bc 9b3d 48b4 33be
000001a0: 7ccb 35bd dc6b 9e3c 49c0 05be 94ed d2bd
000001b0: 1fb1 04be 24f2 42bd 036c dc3d 5983 ac3e
000001c0: e979 04be 9df6 17be aa5e 4b3e 7d49 943d
000001d0: 6521 503d 1ce9 943e 60cc 8d3d 2668 583e
000001e0: 24c2 be3c 3133 4f3d 10cb 2c3e 75f1 0bbe
000001f0: b256 35bd 219b 343d f291 68bd 9de4 e73c

model1.fc3.weight f4 [64, 128]
0.014624524 -0.016529901 -0.065823816 0.14776318 -0.07420121 -0.008782658 0.012155257 0.054316714
-0.03285936 -0.05035593 -0.07625643 -0.07965992 0.060072966 -0.017240973 0.037354425 -0.061700042
-0.012481547 -0.10077928 -0.07524526 0.03306807 0.0017400235 -0.005528192 -0.07876527 0.048327502
0.07684914 0.004822277 0.07267037 -0.04356551 -0.01096523 0.07409874 0.057387818 -0.034412343
0.032636646 -0.012313941 0.035151865 0.012648754 -0.032898165 -0.081087835 0.1589907 0.06153172
0.035062816 0.045558635 -0.01066677 0.052019764 -0.07527162 -0.059343975 0.045634836 -0.04999323
-0.016073579 0.009269409 0.15546547 0.055052735 -0.013205344 -0.047858726 0.059930805 -0.08071616
-0.07322713 -0.03748863 -0.033310402 -0.004941739 -0.087090895 -0.06939331 0.07494585 0.0162528
-0.016360097 0.056038037 0.04873381 -0.09913652 -0.025625346 -0.02608404 -5.1727504e-05 -0.06301683
-0.015055601 0.011681228 -0.009844798 0.031621493 0.04819238 -0.041127425 0.020258322 -0.06549111
0.040435266 -0.03661825 -0.01831509 0.07090921 0.07225818 0.080629766 -0.0322706 0.038273495
0.07984639 -0.028368821 -0.092249006 -0.00993626 -0.07473684 0.047465578 -0.026074076 0.012246521
-0.06894233 0.007887974 0.0344129 -0.09947409 -0.052380797 0.021022161 0.06340698 0.08040976
-0.069766864 0.0010665955 0.03877673 0.020866353 -0.07911116 0.025905907 -0.04859735 -0.206392
0.070465185 0.08391569 0.077234246 -0.009587059 0.023652636 -0.04345963 0.0014815007 0.088148534
0.07114696 -0.0054006167 -0.08241002 0.0012965668 -0.06956389 0.069043055 -0.037959147 -0.024971707
0.007573272 -0.08838661 -0.38371217 0.14206426 0.013681197 0.032741647 -0.015012873 0.17673786
0.025476318 -0.06981027 0.058775265 -0.005193377 -0.05851483 -0.044835225 0.0063878396 0.04002492
0.052000012 0.06560989 -0.06001373 -0.078937724 -0.031849183 0.37185147 -0.066465855 -0.09805722
0.07210032 0.2520668 -0.06766798 0.05638399 -0.07673202 0.016171344 -0.041236226 0.19478153
-0.047075775 -0.062625624 0.020098709 -0.04573113 0.034022987 -0.017007487 -0.09721216 0.0048784614
0.06820967 0.07547376 0.009501137 0.0036363755 -0.0037908205 -0.07410964 -0.063119635 0.072259314
-0.12709978 0.07097382 -0.08341132 0.34506163 -0.06948662 0.050875224 0.28155884 -0.027031144
0.10311667 0.048119012 0.105109595 0.016197506 0.14431246 -0.04702709 0.014209197 0.004521045
-0.076284215 -0.019472376 0.08366515 0.057795696 -0.043092288 0.017403338 -0.11370785 0.022199228
0.0669201 -0.092384145 0.07213322 -0.018230835 0.039959513 0.3306087 -0.09593579 -0.01038807
-0.0706407 -0.096839175 0.030241448 0.014214016 0.049646914 -0.041567784 0.06353972 -0.008213215
0.00046637843 0.022006175 -0.0020695466 -0.017861092 -0.03748527 -0.28901485 0.0893807 -0.091754496
-0.0011075956 0.45293033 -0.09433705 0.0112362625 -0.014660644 0.05734986 -0.017651126 -0.13240708
-0.084789515 -0.039067272 -0.0026712893 -0.058650285 -0.004640464 -0.049778886 7.7452e-05 -0.24068189
0.03584325 0.08248263 -0.040447585 0.39841026 0.044746634 0.6380876 -0.060423076 0.642036
-0.39751175 -0.066787586 -0.035370998 -0.014371065 -0.057565976 -0.058504548 -0.057047985 -0.016137173
00000000: b39b 6f3c b769 87bc a3ce 86bd 3b4f 173e
00000010: cef6 97bd 23e5 0fbc d826 473c 347b 5e3d
00000020: 8997 06bd 0542 4ebd 552c 9cbd bd24 a3bd
00000030: 120f 763d f13c 8dbc f400 193d 2fb9 7cbd
00000040: 677f 4cbc 5e65 cebd 301a 9abd 6272 073d
00000050: 8011 e43a d625 b5bb b04f a1bd 0ff3 453d
00000060: 1563 9d3d 3104 9e3b 34d4 943d c071 32bd
00000070: 82a7 33bc 15c1 973d 7d0f 6b3d f5f3 0cbd
00000080: 01ae 053d 69c0 49bc 67fb 0f3d b83c 4f3c
00000090: 3ac0 06bd 6111 a6bd 75ce 223e af08 7c3d
000000a0: 079e 0f3d b19b 3a3d adc3 2ebc ad12 553d
000000b0: 0228 9abd ab12 73bd 98eb 3a3d b3c5 4cbd
000000c0: bdac 83bc b8de 173c 5732 1f3e fa7e 613d
000000d0: 3a5b 58bc 8307 44bd 017a 753d 844e a5bd
000000e0: 1bf8 95bd ad8d 19bd 7d70 08bd 50ee a1bb
000000f0: b65c b2bd 141e 8ebd 367d 993d 9824 853c
00000100: 9c05 86bc 2488 653d 1b9d 473d 1608 cbbd
00000110: 3fec d1bc 32ae d5bc fcf5 58b8 f80e 81bd
00000120: c4ab 76bc 9f62 3f3c 134c 21bc 8a85 013d
00000130: 6065 453d 3b75 28bd c8f4 a53c 3420 86bd
00000140: 739f 253d 05fd 15bd 8709 96bc d938 913d
00000150: 19fc 933d 3821 a53d 2d2e 04bd abc4 1c3d
00000160: 8186 a33d bb65 e8bc 0ced bcbd b2cb 22bc
00000170: a10f 99bd 446b 423d 4d99 d5bc a2a5 483c
00000180: a331 8dbd 903c 013c 8bf4 0c3d 12b9 cbbd
00000190: 3f8d 56bd ab36 ac3c 85db 813d dfad a43d
000001a0: eee1 8ebd 02cd 8b3a 59d4 1e3d eaef aa3c
000001b0: 0805 a2bd a038 d43c 040e 47bd 6d58 53be
000001c0: 0d50 903d fddb ab3d fd2c 9e3d 0a13 1dbc
000001d0: 2cc3 c13c ba02 32bd ea2e c23a 3887 b43d
000001e0: 7fb5 913d a8f7 b0bb 96c6 a8bd 90f1 a93a
000001f0: 8377 8ebd 7266 8d3d 0d7b 1bbd 7791 ccbc
00000200: 3629 f83b 0a04 b5bd ec75 c4be 4b79 113e
00000210: 1927 603c 1b1c 063d 8ef8 75bc c5fa 343e
00000220: b6b3 d03c b0f8 8ebd 55be 703d 342d aabb
00000230: 3fad 6fbd 24a5 37bd 1551 d13b 2cf1 233d
00000240: f7fd 543d 7a5e 863d f5d0 75bd 1aaa a1bd
00000250: 4a74 02bd 5163 be3e 401f 88bd 39d2 c8bd
00000260: 55a9 933d e60e 813e 8395 8abd e6f2 663d
00000270: ad25 9dbd c479 843c 51e7 28bd cf74 473e
00000280: 87d2 40bd dd41 80bd 0ca6 a43c 9150 3bbd
00000290: b05b 0b3d 4953 8bbc 2b17 c7bd 80db 9f3b
000002a0: 83b1 8b3d fd91 9a3d a8aa 1b3c 4250 6e3b
000002b0: 6a6f 78bb ccc6 97bd de44 81bd b1fc 933d
000002c0: 7226 02be b95a 913d 8ed3 aabd ebab b03e
000002d0: 004f 8ebd 8a62 503d 7b28 903e 6b70 ddbc
000002e0: d52e d33d 7118 453d b343 d73d a2b0 843c
000002f0: a5c6 133e 7a9f 40bd b1cd 683c 4625 943b
00000300: e63a 9cbd 8884 9fbc a258 ab3d 2ebb 6c3d
00000310: 8a81 30bd 7291 8e3c a9df e8bd 28db b53c
00000320: 680d 893d e633 bdbd 95ba 933d d558 95bc
00000330: 96ac 233d 8b45 a93e fc79 c4bd b932 2abc
00000340: 12ac 90bd 9e53 c6bd eabc f73c e7e1 683c
00000350: 905a 4b3d fb42 2abd 1d21 823d b890 06bc
00000360: 4184 f439 4b46 b43c 3ba1 07bb 6d51 92bc
00000370: 288a 19bd c1f9 93be 3a0d b73d c8e9 bbbd
00000380: be2c 91ba 7ce6 e73e c933 c1bd 4d18 383c
00000390: 3333 70bc b0e7 6a3d 1899 90bc b995 07be
000003a0: 20a6 adbd 0105 20bd cc10 2fbb 483b 70bd
000003b0: 090f 98bb f2e4 4bbd ba6d a238 5075 76be
000003c0: 5fd0 123d a7ec a83d 5eac 25bd 6efc cb3e
000003d0: 3f48 373d b559 233f 307e 77bd 795c 243f
000003e0: a986 cbbe eec7 88bd 2ee1 10bd 9e74 6bbc
000003f0: 4dca 6bbd 77a2 6fbd 26ab 69bd 1b32 84bc

model1.fc3.bias f4 [64]
-0.17425092 -0.03372942 -0.020718874 -0.022013148 -0.14719597 0.05281594 0.0010151205 -0.01997448
0.019221203 0.058350667 0.06490993 -0.106606975 0.1380598 0.014132674 -0.017419072 -0.07080217
0.13797575 0.055702366 -0.029908538 -0.041915976 -0.19285494 0.14662318 0.13311316 -0.045714665
-0.099645235 0.056787066 -0.07750887 0.0054885373 -0.12365031 0.09445867 -0.013083039 0.037273757
-0.05220368 0.11603571 0.058119815 -0.010804603 -0.12277614 -0.030008145 0.123844415 0.067558296
0.046017405 -0.069158845 0.039081324 0.13611288 -0.073986046 -0.056160886 0.14839931 0.07326343
-0.0053704185 0.003109949 -0.0471928 -0.074875414 -0.09785005 -0.14255685 -0.08927726 0.117211245
-0.04712253 -0.06458238 -0.029178498 0.057473313 -0.03349743 0.10693672 -0.012202201 0.12947655
00000000: d56e 32be dc27 0abd a1ba a9bc eb54 b4bc
00000010: 8aba 16be 8755 583d cb0d 853a 85a1 a3bc
00000020: c975 9d3c 1c01 6f3d 7fef 843d c254 dabd
00000030: 8c5f 0d3e bb8c 673c 71b2 8ebc ba00 91bd
00000040: 8449 0d3e 2a28 643d c002 f5bc 16b0 2bbd
00000050: c47b 45be 6324 163e d14e 083e 4d3f 3bbd
00000060: cd12 ccbd 8e99 683d f8bc 9ebd 30d9 b33b
00000070: 603c fdbd 8c73 c13d 3e5a 56bc 5eac 183d
00000080: 87d3 55bd 21a4 ed3d 0b0f 6e3d ca05 31bc
00000090: 0f72 fbbd a4d3 f5bc 24a2 fd3d 015c 8a3d
000000a0: bf7c 3c3d 27a3 8dbd bd13 203d 2d61 0b3e
000000b0: ff85 97bd f508 66bd fdf5 173e 230b 963d
000000c0: 56fa afbb 49d0 4b3b 3d4d 41bd 4858 99bd
000000d0: 9b65 c8bd 6cfa 11be ffd6 b6bd 730c f03d
000000e0: 8e03 41bd c443 84bd bf07 efbc 2369 6b3d
000000f0: 9a34 09bd a401 db3d beeb 47bc 8095 043e

model1.fc_out.weight f4 [1, 64]
0.07648931 0.08579378 -0.104742445 0.077 0.042638212 -0.0066513545 0.0831648 0.0074274666
0.09842271 -0.070968166 -0.07827268 0.6256069 -0.099452876 0.10310589 0.11505022 0.1291418
0.10605557 -0.02502076 0.09264998 -0.044928506 0.04690192 -0.33213118 0.35161644 -0.10159319
0.09592927 -0.10535493 0.06205271 0.020996366 0.0639497 -0.11375 0.005209877 -0.057089787
-0.00077898626 -0.12298328 0.029987263 0.078287184 0.02197668 -0.08496302 -0.067777336 -0.02280173
0.014133274 0.10823187 -0.05489886 -0.099391885 -0.03547663 0.008690062 -0.08073311 0.0124492105
-0.115477644 -0.033045653 0.12055333 0.06301658 0.07051714 0.018090067 0.085573696 -0.12158208
0.06976889 0.11599464 -0.06370657 -0.041820645 0.071394786 -0.4146008 -0.10752626 -0.043045353
00000000: 6da6 9c3d a6b4 af3d 3583 d6bd 2db2 9d3d
00000010: 68a5 2e3d 9bf3 d9bb 4f52 aa3d 1b62 f33b
00000020: d991 c93d c257 91bd 6d4d a0bd c627 203f
00000030: f3ad cbbd 2e29 d33d 739f eb3d bf3d 043e
00000040: aa33 d93d 56f8 ccbc 46bf bd3d f406 38bd
00000050: 3a1c 403d 190d aabe 1207 b43e 1710 d0bd
00000060: 9176 c43d 53c4 d7bd fc2a 7e3d 9200 ac3c
00000070: 0ff8 823d c3f5 e8bd 9eb7 aa3b fbd6 69bd
00000080: e234 4cba a8de fbbd d9a7 f53c 0855 a03d
00000090: 7008 b43c 1801 aebd d8ce 8abd b2ca babc
000000a0: 3f8f 673c aca8 dd3d a1dd 60bd f98d cbbd
000000b0: f14f 11bd c360 0e3c 6757 a5bd c6f7 4b3c
000000c0: 8b7f ecbd e15a 07bd aae4 f63d d60e 813d
000000d0: 4a6b 903d 9f31 943c 4341 af3d 0700 f9bd
000000e0: fee2 8e3d 998e ed3d 9778 82bd 204c 2bbd
000000f0: 6e37 923d 8e46 d4be ba36 dcbd 5350 30bd
